Using TensorFlow backend.
_________________________________________________________________
Layer (type)                 Output Shape              Param #
=================================================================
conv2d_1 (Conv2D)            (None, 28, 28, 6)         456
_________________________________________________________________
max_pooling2d_1 (MaxPooling2 (None, 14, 14, 6)         0
_________________________________________________________________
conv2d_2 (Conv2D)            (None, 10, 10, 16)        2416
_________________________________________________________________
max_pooling2d_2 (MaxPooling2 (None, 5, 5, 16)          0
_________________________________________________________________
flatten_1 (Flatten)          (None, 400)               0
_________________________________________________________________
dense_1 (Dense)              (None, 120)               48120
_________________________________________________________________
dense_2 (Dense)              (None, 84)                10164
_________________________________________________________________
dense_3 (Dense)              (None, 10)                850
=================================================================
Total params: 62,006
Trainable params: 62,006
Non-trainable params: 0
_________________________________________________________________
None
Using real-time data augmentation.
2019-10-31 11:04:54.483957: I tensorflow/core/platform/cpu_feature_guard.cc:140] Your CPU supports instructions that this TensorFlow binary was not compiled to use: AVX AVX2
…
